INFO:root:Initial Network (before any training):
INFO:root:MobileNetV2(
  (conv1): Conv2d(3, 32, kernel_size=(3, 3), stride=(2, 2), padding=(1, 1), bias=False)
  (bn1): BatchNorm2d(32, eps=1e-05, momentum=0.1, affine=True, track_running_stats=True)
  (relu): ReLU6(inplace=True)
  (block1): InvertedResidual(
    (conv1): Conv2d(32, 192, kernel_size=(1, 1), stride=(1, 1), bias=False)
    (bn1): BatchNorm2d(192, eps=1e-05, momentum=0.1, affine=True, track_running_stats=True)
    (relu): ReLU6(inplace=True)
    (conv2): Conv2d(192, 192, kernel_size=(3, 3), stride=(1, 1), padding=(1, 1), groups=192, bias=False)
    (bn2): BatchNorm2d(192, eps=1e-05, momentum=0.1, affine=True, track_running_stats=True)
    (conv3): Conv2d(192, 16, kernel_size=(1, 1), stride=(1, 1), bias=False)
    (bn3): BatchNorm2d(16, eps=1e-05, momentum=0.1, affine=True, track_running_stats=True)
  )
  (block2): InvertedResidual(
    (conv1): Conv2d(16, 96, kernel_size=(1, 1), stride=(1, 1), bias=False)
    (bn1): BatchNorm2d(96, eps=1e-05, momentum=0.1, affine=True, track_running_stats=True)
    (relu): ReLU6(inplace=True)
    (conv2): Conv2d(96, 96, kernel_size=(3, 3), stride=(2, 2), padding=(1, 1), groups=96, bias=False)
    (bn2): BatchNorm2d(96, eps=1e-05, momentum=0.1, affine=True, track_running_stats=True)
    (conv3): Conv2d(96, 24, kernel_size=(1, 1), stride=(1, 1), bias=False)
    (bn3): BatchNorm2d(24, eps=1e-05, momentum=0.1, affine=True, track_running_stats=True)
  )
  (block3): InvertedResidual(
    (conv1): Conv2d(24, 144, kernel_size=(1, 1), stride=(1, 1), bias=False)
    (bn1): BatchNorm2d(144, eps=1e-05, momentum=0.1, affine=True, track_running_stats=True)
    (relu): ReLU6(inplace=True)
    (conv2): Conv2d(144, 144, kernel_size=(3, 3), stride=(2, 2), padding=(1, 1), groups=144, bias=False)
    (bn2): BatchNorm2d(144, eps=1e-05, momentum=0.1, affine=True, track_running_stats=True)
    (conv3): Conv2d(144, 32, kernel_size=(1, 1), stride=(1, 1), bias=False)
    (bn3): BatchNorm2d(32, eps=1e-05, momentum=0.1, affine=True, track_running_stats=True)
  )
  (block4): InvertedResidual(
    (conv1): Conv2d(32, 192, kernel_size=(1, 1), stride=(1, 1), bias=False)
    (bn1): BatchNorm2d(192, eps=1e-05, momentum=0.1, affine=True, track_running_stats=True)
    (relu): ReLU6(inplace=True)
    (conv2): Conv2d(192, 192, kernel_size=(3, 3), stride=(2, 2), padding=(1, 1), groups=192, bias=False)
    (bn2): BatchNorm2d(192, eps=1e-05, momentum=0.1, affine=True, track_running_stats=True)
    (conv3): Conv2d(192, 64, kernel_size=(1, 1), stride=(1, 1), bias=False)
    (bn3): BatchNorm2d(64, eps=1e-05, momentum=0.1, affine=True, track_running_stats=True)
  )
  (block5): InvertedResidual(
    (conv1): Conv2d(64, 384, kernel_size=(1, 1), stride=(1, 1), bias=False)
    (bn1): BatchNorm2d(384, eps=1e-05, momentum=0.1, affine=True, track_running_stats=True)
    (relu): ReLU6(inplace=True)
    (conv2): Conv2d(384, 384, kernel_size=(3, 3), stride=(1, 1), padding=(1, 1), groups=384, bias=False)
    (bn2): BatchNorm2d(384, eps=1e-05, momentum=0.1, affine=True, track_running_stats=True)
    (conv3): Conv2d(384, 96, kernel_size=(1, 1), stride=(1, 1), bias=False)
    (bn3): BatchNorm2d(96, eps=1e-05, momentum=0.1, affine=True, track_running_stats=True)
  )
  (block6): InvertedResidual(
    (conv1): Conv2d(96, 576, kernel_size=(1, 1), stride=(1, 1), bias=False)
    (bn1): BatchNorm2d(576, eps=1e-05, momentum=0.1, affine=True, track_running_stats=True)
    (relu): ReLU6(inplace=True)
    (conv2): Conv2d(576, 576, kernel_size=(3, 3), stride=(2, 2), padding=(1, 1), groups=576, bias=False)
    (bn2): BatchNorm2d(576, eps=1e-05, momentum=0.1, affine=True, track_running_stats=True)
    (conv3): Conv2d(576, 160, kernel_size=(1, 1), stride=(1, 1), bias=False)
    (bn3): BatchNorm2d(160, eps=1e-05, momentum=0.1, affine=True, track_running_stats=True)
  )
  (block7): InvertedResidual(
    (conv1): Conv2d(160, 960, kernel_size=(1, 1), stride=(1, 1), bias=False)
    (bn1): BatchNorm2d(960, eps=1e-05, momentum=0.1, affine=True, track_running_stats=True)
    (relu): ReLU6(inplace=True)
    (conv2): Conv2d(960, 960, kernel_size=(3, 3), stride=(1, 1), padding=(1, 1), groups=960, bias=False)
    (bn2): BatchNorm2d(960, eps=1e-05, momentum=0.1, affine=True, track_running_stats=True)
    (conv3): Conv2d(960, 320, kernel_size=(1, 1), stride=(1, 1), bias=False)
    (bn3): BatchNorm2d(320, eps=1e-05, momentum=0.1, affine=True, track_running_stats=True)
  )
  (conv2): Conv2d(320, 1280, kernel_size=(1, 1), stride=(1, 1), bias=False)
  (bn2): BatchNorm2d(1280, eps=1e-05, momentum=0.1, affine=True, track_running_stats=True)
  (avgpool): AdaptiveAvgPool2d(output_size=1)
  (fc): Linear(in_features=1280, out_features=10, bias=True)
)
